tests/b3_frm_human_b1_r1_400ns_noPBCWhole_noJump_Center_SKIP10_euler_angles.npy (npy, 2552 bytes, 1 tensors)

array f8 [101, 3]
0	0x0000000000000000	0.0
1	0x0000000000000000	0.0
2	0x0000000000000000	0.0
3	0x40227bc5b3f98c22	9.241742729389504
4	0xc02f9d168d212214	-15.806812677664347
5	0x40295cf39b0846c6	12.68154606319457
6	0x403b12f89c1fa377	27.074105985378505
7	0xc00539b5800f3d5c	-2.6531782154703887
8	0x4029209f9ceb3a52	12.563717750276883
9	0x4049cb4a7c6a6e32	51.588210632293695
10	0xc03378bd3595da93	-19.471637105069544
11	0x40337017bbf8b723	19.437862156125572
12	0x4043578e1fc82671	38.68402478478391
13	0xc029be6cb2a6c563	-12.871923048837465
14	0x402bd322a5ccc219	13.912373715634248
15	0x4045a1a7d8892aaf	43.262934748626655
16	0xc02acd46794c81fb	-13.40092829760487
17	0x403d6366770dbe40	29.388282242636933
18	0x4046e6d72c69e329	45.80344157381325
19	0xc01660c263ecb969	-5.594491540263655
20	0x403647808126c89a	22.279304573029187
21	0x40445991500fcdb9	40.699747092930416
22	0xc0260b13cb433fbb	-11.021635391196346
23	0x4037d923768dfca7	23.848197374024178
24	0x4040b1d7ab239ad6	33.38939418066518
25	0xc00f33ac1236193c	-3.90023054339977
26	0x4042c7f5389991b2	37.562171053872035
27	0x4045818ee168e75e	43.01217286703353
28	0xc0084d86502badd2	-3.0378538382844704
29	0x4034d6dfa0824889	20.839349777038056
30	0x4041d9cd6bc48ad3	35.70158145043174
31	0x401387503bf67a22	4.882142006796615
32	0x40434f776ad7166e	38.62083182813954
33	0x403fd7f50d8ad62c	31.84358296050611
34	0x402039df7ba240ec	8.113033164554928
35	0x4042d082e4693b08	37.62899451387608
36	0x40410df7c7a8fad3	34.10912414313284
37	0x40204040d1b194f4	8.125494530608627
38	0x404430588f6dcb3a	40.37770264493015
39	0x403ea79cb1ff2f45	30.65473473053068
40	0xc01628c7b01d6407	-5.539824249070995
41	0x40476bdaeb83567b	46.84261840737323
42	0x40414d132c6ea746	34.602147630720125
43	0xc02f7ac8f88c9ff5	-15.739814536253087
44	0x40409f0faad29c2f	33.242665627324065
45	0x403795eab5995113	23.585612630778154
46	0xc02bc0a964c1260b	-13.876292370393477
47	0x403fa0ede8211b22	31.62863016899349
48	0x4045b773fadbf74a	43.4332269262364
49	0xc0370b5c1ce644cb	-23.04437428113742
50	0x40004e95496c6cdb	2.0383706794942618
51	0x404803d6df161a44	48.029994855682645
52	0xc034bc43dcea51a1	-20.73541050644565
53	0x403a61c84b6c45e6	26.38196250337014
54	0x404943d4d705b030	50.52993285920854
55	0xc02d3518df262e68	-14.603705380831528
56	0x4037553eab3e5ec1	23.33298750183781
57	0x404531f28a383e93	42.39021423097906
58	0xc029b4f3ed4a2602	-12.853423514653517
59	0x401b69c1959796ad	6.8532775281689
60	0x40424ef64745e5f7	36.61689082062724
61	0xc0291fa2ff2e79d3	-12.561790441916775
62	0xc0306574cf67da8b	-16.39631363187304
63	0x403ba5642f53bb09	27.646059949819605
64	0xc028f950be5118ae	-12.486944148444618
65	0x4012243c0676afe7	4.535385228151404
66	0x403af9b14713c4ab	26.975361292196492
67	0x402850612ee1c9c4	12.15699144846156
68	0x40436390bfaab937	38.77785487972363
69	0x40488652fbdedeca	49.049407466719984
70	0x4032fc6b5531c47b	18.986012768411893
71	0x4045b67b763084ff	43.4256427513992
72	0x403d7ed30d209b33	29.495407886944303
73	0x4038599db05f3ed6	24.350062392476353
74	0x404d62ed5b55e18c	58.77286855405245
75	0x40496e24c3fdd4ec	50.86049699682357
76	0x4043916b497b8c05	39.136086640668545
77	0x405011a8299c6b8d	64.27588882708933
78	0x40424c7727af29ec	36.59738632252615
79	0x404991c4ac441429	51.13881448101194
80	0x4042b31061353ca7	37.39893736934146
81	0x404be1489e8e7247	55.76002866702452
82	0x403988b91b8ec676	25.534074518544422
83	0x4038752737d6e2aa	24.457629671060808
84	0x4044bfde2cc9e67c	41.49896774156966
85	0x4044346f8594645c	40.40965337510781
86	0x4037908caf328acb	23.56464667304935
87	0x40402d459a48c8ac	32.35368660501385
88	0x4035639408b6857d	21.388977570114992
89	0x4035ed566cc077b6	21.92709998797337
90	0x40394f077ee259d8	25.308708124410117
91	0x403740e420c91b07	23.253480958078423
92	0x40366c28900aa086	22.42249393710565
93	0x4043c2fee22bb764	39.52340342650021
94	0x403609fa62ecae6d	22.038976843627484
95	0x40521eb34d112895	72.47969366717946
96	0x403e6095399b468b	30.377276993187973
97	0x401c0225ae19c02a	7.00209686309976
98	0x404249451aa1abb7	36.57242138761597
99	0x40413a69ab197090	34.45634974233792
100	0x403bdc006968342f	27.85938128274955
101	0x404fed983384a1b9	63.85620731331023
102	0x4048f5c920f5518a	49.920200462135725
103	0x404890a9750e04f2	49.130171424718256
104	0x4059f864343eb294	103.88111597178278
105	0x405da7912cb94128	118.61823576060544
106	0x404f61d3761e976a	62.7642657899258
107	0x4063e0959759948f	159.0182606458297
108	0x404ffb9cffd11a6d	63.96572873792761
109	0x4051391c61114779	68.89235712706967
110	0x405f741995f707e1	125.81406163333988
111	0x403616d98f5b365e	22.0892572019278
112	0x4054f63c7b68485d	83.84744153198103
113	0x4051b198a7408387	70.77494221973585
114	0x405baba345726862	110.68184028790122
115	0x4052da8a636de46f	75.41469655734703
116	0x4063749742dcd82c	155.64346449979473
117	0x405da784286fdd63	118.61744128155037
118	0x4052ccf118d10abf	75.20221538938766
119	0x4063d9f159836202	158.8107116285392
120	0x4025b62fc6df613c	10.855833258407635
121	0x40502f0018d8d9d5	64.73438092400404
122	0x40504b6b47af6d89	65.1784228528178
123	0xc032211ef0e2cd6b	-18.129378371593173
124	0x405127a4c169b30b	68.61943087885099
125	0x403da750db32a1e7	29.653577518330987
126	0x4044f3c7370a14ba	41.904517059252115
127	0x404d6dc910ed6ca9	58.857698551111135
128	0x404b1c4aed3574c4	54.22103657827532
129	0x4024cfb1e5342451	10.40565410863397
130	0x40461c6ac0e50ccd	44.22200785812456
131	0x4032e221c47696dc	18.88332775016066
132	0x4049df015ecd0455	51.74222931871979
133	0x404cac93d97b5e80	57.34826200984844
134	0x4040c2f1475c93ce	33.52298824329738
135	0x4045cfb9d29a41b3	43.622858357735275
136	0x4049a6b6e3f5ba7a	51.30245637415369
137	0x4048101d6d731d19	48.12589805718216
138	0x4002077c0e2bf2b4	2.253654585567654
139	0x4055b4da1a53756a	86.82581194067248
140	0xc00f55ff7a9e9c3e	-3.916991193738368
141	0x405461f499fa38f8	81.5305542892055
142	0x40534dda58956bfb	77.21645178405736
143	0x4058d35604b4ea51	99.30212514560232
144	0xc056e27a75d0e91f	-91.53872437859944
145	0x4052003617d40009	72.00330157950533
146	0xc052474011e9742f	-73.11328552053668
147	0xc0413a7f87e1c45a	-34.457016930806915
148	0x4053226e017a0f9a	76.53796421928419
149	0xc03249a487fa5a93	-18.287666796323332
150	0x400e2ab2d02f047a	3.7708488716457937
151	0x4050352d6df17ebe	64.8308977945662
152	0x4042f3f2742d939d	37.9058366034071
153	0xc024717e9f43eade	-10.221669175186829
154	0x405089226799f74a	66.14272489581813
155	0xc0436f7419814042	-38.87073057948193
156	0x40408c3c29b5aabb	33.09558602686362
157	0x4044b1232bdd4224	41.38388584426528
158	0xc0428159ef907f60	-37.01055712276025
159	0x4048b5cbfd640864	49.42028777489102
160	0x40419410e1e12239	35.15676520817619
161	0xc0239b9106780d43	-9.803840829996835
162	0x404f3c1405102605	62.469360955128685
163	0x4041dcfae44deb34	35.72640661053302
164	0x40300d09c46d7972	16.050930287100933
165	0x404391d07ff0a13b	39.13917540788176
166	0x4048c3541744d2c2	49.52600375042449
167	0xc02b057a2a98bea5	-13.510697680612177
168	0x404410fbfeeddb19	40.13269030202918
169	0x40542e6a0eeb589a	80.72522328360574
170	0xc04d00bab837132d	-58.00569822968678
171	0x401a32611d74dac5	6.549198589570271
172	0x405023df7e5a49f5	64.5605159646728
173	0xc0561496cf10d2e7	-88.3217046417518
174	0xc053b8ca81b68ff4	-78.88736002758361
175	0x405221af3a616336	72.52632007132055
176	0x406650c671d8b7d3	178.52422420814273
177	0xc04aa3c2e3a82300	-53.27938504895974
178	0x4045f8b9cdd89eeb	43.94317029072939
179	0xc057349a8fb8f1b7	-92.82193368016202
180	0xc0523c2553bd1e75	-72.93977826565408
181	0x403ad57d9eb7b0c7	26.833948058935473
182	0xc05dbbf4fc50e728	-118.93682773495368
183	0xc03dd692e44f0d9d	-29.838178891468136
184	0x405402f112d1024d	80.04596395884546
185	0xc057057c79e33cde	-92.08572241965473
186	0xc057cc3df8cc9496	-95.19128246286922
187	0x404aa65fe4c9ec81	53.29980144366801
188	0xc060adbeb79a8d56	-133.42953090845066
189	0xc05f0a9e0d9c4ba9	-124.1658967996906
190	0x4050092c3b8e3f36	64.14332474604893
191	0xc063c310a43306cd	-158.09578142133833
192	0xc062db197b15a26c	-150.84686044908028
193	0x4050e826d7ac9452	67.62737075665908
194	0x40634830d04ca590	154.25595869989456
195	0xc05f66361d1f1e43	-125.59705284155739
196	0x4050f0ca5d5c9008	67.76235136069602
197	0xc06635d5e7124d5d	-177.68236116003655
198	0xc05e63c101fbf033	-121.55865525821063
199	0x40520dbc4091138e	72.21461500327698
200	0xc064eaee79ebb6c1	-167.34161087072246
201	0xc05a7fb68f85cd87	-105.99551761690792
202	0x40431eab85770e28	38.23960941613433
203	0xc063427001eccebf	-154.0761727929257
204	0xc0503f492c721478	-64.98884116306897
205	0x404c538a8192d441	56.65266437215224
206	0xc05a73e7400d9c8f	-105.81098939255956
207	0xc04c82eac8843720	-57.02279001670672
208	0x40488760a1f9c178	49.057636496497196
209	0xc05dadae0175ee31	-118.71374546543736
210	0xc055b1fc39b2f463	-86.7810196158985
211	0x405084b2644deca4	66.07338817224314
212	0x40661901f5de57ca	176.78148930956223
213	0xc059e797fd049bfb	-103.618651632787
214	0x40489c2ffc56a402	49.22021440725804
215	0x40652c58de1ee9db	169.38584810293
216	0xc05ce580757307c4	-115.5859655021041
217	0x40502b80a9fcac87	64.67972802806081
218	0x4065dfc4a71fc371	174.99275547221944
219	0xbfeaf0df51f27a36	-0.8419033623247916
220	0x4052ceadfa849398	75.22936881014755
221	0xc048b13d43590c67	-49.38468210075444
222	0xc055e9cb28146599	-87.65302469245798
223	0x4055f6a1e42a12b4	87.85363105877587
224	0xc05fa5d7411194e4	-126.59126307217554
225	0x405d7da336fd72f5	117.96308684111484
226	0x4053f223a0b69deb	79.78342454751662
227	0x40586ac2e6794924	97.66814576954181
228	0xc062a4933b469081	-149.1429726007664
229	0x4055a81333d99049	86.62617202993819
230	0x406644fd7bc3be93	178.15594280463537
231	0xc061045613ce2142	-136.1355074907279
232	0x405325d859bab4b8	76.59132998688699
233	0xc064cca2aec5a306	-166.39485872841777
234	0x405278b740753c2a	73.88618480156643
235	0x40541d24da4833d2	80.45537430811899
236	0x40489faec15683aa	49.247520606273
237	0xc050ac28203b165c	-66.6899490906739
238	0x4045ac06d6d5e20a	43.34395871585373
239	0xc05a7ac1e9e2b09c	-105.91808554780658
240	0xc02af2b6b713e7af	-13.474050255946933
241	0x4042a39462333f47	37.2779658079367
242	0xc04c0b6f23e64db3	-56.08932923074044
243	0xc03abcfc1acf27de	-26.738221812796716
244	0x40468ee35c39a38e	45.11631348432921
245	0xc0491dcae2a8f1b4	-50.23275407075144
246	0x4033a1a60c39aa70	19.63143993766647
247	0x404c665294e79052	56.79939519221138
248	0xc034c6a7735107da	-20.77599259117401
249	0xc036ac2f71eb7d58	-22.672598953239998
250	0x40509966c9962c5d	66.39689864793168
251	0xc049849cdf2a8b0c	-51.03603734566977
252	0x401b811505c69d8a	6.876056757209321
253	0x4048779fc8988dbe	48.93456370781813
254	0xc03ae6d450f629a1	-26.90167718896703
255	0xc02c53c864d09417	-14.16363825842022
