tests/b3_frm_human_b1_r0_400ns_noPBCWhole_noJump_Center_SKIP10_euler_angles.npy (npy, 2552 bytes, 1 tensors)

array f8 [101, 3]
00000000: 0000 0000 0000 0000 0000 0000 0000 0000
00000010: 0000 0000 0000 0000 1505 faf4 b97e 3740
00000020: 804b 2b96 858a fb3f 7b42 f111 e136 45c0
00000030: a267 3f8f db36 4340 e36f 7728 b69b 03c0
00000040: ed30 b8d8 da4b 53c0 1f36 9526 10c7 5140
00000050: 1cf1 8302 5728 2a40 0562 2494 911f 5bc0
00000060: d650 666c fa69 5640 e8bd 1f91 02cb 3e40
00000070: b55a 1ecf 1190 59c0 c939 332d ec1a 5640
00000080: a0d4 bb10 188a 4540 ca0e b397 4fa0 63c0
00000090: 9c41 687c 7b9d 5b40 71ac c76f c651 5040
000000a0: 5160 1904 18ca 60c0 b2d0 f7a3 847e 5740
000000b0: 1e36 6c58 8b57 4640 9402 b561 9e86 63c0
000000c0: 3d19 38ab 1a51 5840 27b0 46cd 0ccb 3540
000000d0: 5113 c252 f188 54c0 94e1 cf45 0506 5540
000000e0: 0c93 825e 8ac1 2440 a5f8 7e94 b21e 5dc0
000000f0: 2efb 29ba 6527 4e40 f1f0 e372 0d51 2240
00000100: ff5d 05ba d043 5fc0 a899 5aff 809f 4940
00000110: 3b0e b101 312c 26c0 fb2d ff5e bae7 57c0
00000120: e022 91d6 d605 4c40 82b0 0c2c 77db 2a40
00000130: 2991 1d7b 4284 51c0 2f92 ed1f 4810 4840
00000140: 7f35 a3c3 f583 3140 c720 97e9 dfc2 43c0
00000150: 49c1 1225 8c1b 3440 b5da e4ef 14d6 0640
00000160: 4dc0 f2d4 2c69 1ec0 37f8 1317 e8a8 2fc0
00000170: eb1d 9d26 2df3 4640 1b78 eefe daef 2b40
00000180: 704a fb34 f13e 43c0 670c 85dd f745 4d40
00000190: 9719 1754 0638 3440 2c16 dedb 811d 4dc0
000001a0: c0e0 ad3d 6678 4540 f3c7 4da8 bacc 3740
000001b0: 421c 5644 2cc0 5ec0 8d41 b075 de3f 4540
000001c0: e2c2 b2e8 8ee3 41c0 c0bd 00c3 734c 64c0
000001d0: 8fad 2412 eaaf 4940 fe8e e778 36b4 52c0
000001e0: 19ef b52c 8e22 63c0 5e9d a941 2bf0 4740
000001f0: 75d6 55b5 3a0a 51c0 7847 676a 4f0c 63c0
00000200: c68d 4bae 63ab 4d40 a6eb 7207 365c 53c0
00000210: 5c50 2d75 a770 5cc0 e848 924e cbe2 3440
00000220: 54e4 09ea d56f 46c0 f995 97e2 1f51 61c0
00000230: 78cf f7e9 df7c 3040 5a3f de7b ae1b 40c0
00000240: 2226 ee60 481c 5fc0 50d8 e17e 8bb1 2240
00000250: 9c22 946f 59e9 4ec0 f6b3 dc1e eca8 5fc0
00000260: e4a5 ac42 115a 3640 e401 1cd6 263b 45c0
00000270: b88a 7862 7137 5ec0 f023 8414 b543 2940
00000280: ace9 ece8 f8be 14c0 ca2a 6907 8ac8 60c0
00000290: 98b6 761f c776 3a40 d319 00f2 7480 41c0
000002a0: 8b9e 2ffe 2cf7 61c0 d2ed 36c2 be06 3440
000002b0: 4ed5 1f48 b840 35c0 25d2 6ff5 095c 61c0
000002c0: a328 bd8d 118f 3640 34d6 9b41 cdb5 37c0
000002d0: 7154 b043 6147 60c0 8a7e 1895 6ca0 3340
000002e0: 0d3e 7f38 7d5c 44c0 d4f0 d867 4d36 5cc0
000002f0: bcc3 e051 695a 3340 0d0d 960f 822e 4cc0
00000300: 9f34 71d7 10bb 58c0 689a 5bf6 9cc7 4040
00000310: 660b 970c ae9e 2d40 5c18 d0d6 9d7c 58c0
00000320: c687 e678 f35d 1840 2d5a 801c d8aa 35c0
00000330: f2cd 8c55 787e 4dc0 acf8 edc6 dc29 00c0
00000340: 4bfe 3c4e 2048 3ec0 f0c9 705c c379 4ac0
00000350: 123f c54a a177 2240 0197 5899 2dfc 32c0
00000360: 2e7b af97 a111 57c0 85e4 13c1 2b44 4840
00000370: a3d0 ea5b f0d3 efbf 9990 9881 def1 5dc0
00000380: 1799 6eb2 9f16 3f40 cd62 2326 6fb8 19c0
00000390: b299 1587 7c14 56c0 151e 5feb e8ad 4040
000003a0: 04dc c9ec f0e5 40c0 f66e 4a94 31ff 54c0
000003b0: 054a 95a8 2f7d 3940 c62b d82b 1cef 4fc0
000003c0: 95d1 b2e5 845a 57c0 bd19 cb31 b15c 3140
000003d0: 31ab 6446 eedc 46c0 9787 0c7b 79f1 5bc0
000003e0: 8c24 62e3 f0c3 2540 2b30 86b1 c2e0 4cc0
000003f0: 42a7 9ccc 6075 59c0 c106 5883 3ffd 3240
00000400: 6e6a c0c3 f3b3 48c0 7a91 b96b 3ef9 58c0
00000410: af61 ff2a a9cd 3240 e11f 519a d273 4bc0
00000420: 1765 027b 4734 5ac0 7068 bbba 2c03 2640
00000430: 0733 d1bc 73b3 49c0 3825 ab6d a786 5ac0
00000440: e1a7 840f e11a 3640 da9b c668 61eb 47c0
00000450: 8c08 7136 64d6 59c0 6db5 1e10 7a94 3740
00000460: 780e 9918 c8bd 4bc0 15d7 ff2a 2889 5ac0
00000470: 4c93 d9f6 8f28 3540 5034 9505 1f32 4cc0
00000480: 943a 9964 0a2c 59c0 f73f 5a8e 5067 3840
00000490: 8e08 df44 b83f 4ec0 5b79 ce5c ed3a 59c0
000004a0: b918 7d30 040c 3840 559b 2d28 3142 4cc0
000004b0: dbcc ec32 9347 5bc0 1772 1152 6a0d 3940
000004c0: 7dd0 8e96 cab6 49c0 60d4 f243 9c00 5ec0
000004d0: 68d8 1cf2 b858 2340 e082 6d8e 3f05 4dc0
000004e0: d889 32d7 ac59 60c0 e298 177e e535 3d40
000004f0: 9d8b 97f9 e695 50c0 1541 68fc b365 60c0
00000500: 26a7 bb74 2fb3 4340 3aa8 f431 6cea 4cc0
00000510: b8cb 48ba 8e8f 5fc0 5373 1a44 b123 4340
00000520: 0eb9 efc2 e425 40c0 4cce cbf3 7f44 62c0
00000530: f91c 8b37 e166 5040 5fb8 ba87 14f4 37c0
00000540: 08d9 fa6b 9ca5 6140 ffa6 72c1 efc7 4240
00000550: 4545 1a0e 8d59 47c0 d876 d657 4b73 6340
00000560: 7c5b d883 c410 4340 36a3 aa61 cbcd 3fc0
00000570: 6434 bc0b 19e1 6140 96c7 b27d e869 4240
00000580: 28e3 e5af 8313 48c0 a47e 19a2 c8d0 6140
00000590: a661 7d4f 9211 3e40 1243 0a4b 0128 54c0
000005a0: 3670 1de0 5626 6140 3f56 16ff 06d6 3b40
000005b0: 76c4 725c 541a 4ec0 cdee 8aae 3fa6 6340
000005c0: c6b1 82ae ba09 4140 ccab df0e 46aa 49c0
000005d0: c040 bef1 2115 6340 b52d 78b2 1ddb 4240
000005e0: 5251 5ee6 7482 4dc0 2bb2 df90 ee24 6340
000005f0: 3687 a146 0156 4140 1f03 72fd fbee 48c0
00000600: 830e c4e7 dc9e 6340 7c87 e1d0 a916 4040
00000610: a68d e450 fcfa 43c0 4e0b 9a51 a771 6340
00000620: c140 7a2c b7de 4140 abf9 089b 0f58 46c0
00000630: 447c 94bd 4188 6440 16c1 1e4a 47d9 4140
00000640: d050 a7b3 9476 4ac0 8854 d39c 54f5 6240
00000650: 489d 2709 9e0e 4240 45c9 1cb3 2c05 50c0
00000660: 89ea 0ffc 946e 6440 caa4 f009 0ac5 4240
00000670: d479 4d04 b105 51c0 7f8e a260 3c28 6440
00000680: 90c6 b82a 0724 4240 28aa ef8a 3a1d 51c0
00000690: c77e 1f77 7303 6340 06db 153d 09f5 4240
000006a0: 2412 36de 3015 50c0 f716 16d2 e505 6340
000006b0: ac7e 1660 95f0 4540 916e 9bcf 914d 40c0
000006c0: 022d 05fe 82c3 6340 a06e 4fa1 2307 4540
000006d0: 2de3 6ba3 d201 48c0 ab5b 07d8 fb6c 65c0
000006e0: e44e d1f0 8b7b 4140 b8eb 0a44 f296 44c0
000006f0: e7e0 3c68 c78d 6540 273b 9bfc 6830 4b40
00000700: 1642 734b 3b24 37c0 40e5 cd56 051e 65c0
00000710: 713e 9bf6 ba51 4240 6ebf 7991 62ec f6bf
00000720: 289e 24fe b6da 65c0 8b52 207f af55 4340
00000730: 89d7 b079 df66 32c0 9ce9 5ed2 3f8e 6540
00000740: 0e25 9930 c533 3c40 e783 ac35 212b 44c0
00000750: a8f9 bc25 0151 65c0 4788 8a7c 3c1e 4540
00000760: 8c53 b0a3 a32e 43c0 33fd e1e7 215e 6640
00000770: 0a2a b21e 9bb1 4040 d3da efb0 61e6 4ec0
00000780: 3d23 dfe9 9eb6 63c0 8c42 b642 128d 3e40
00000790: 1bfe 29fd 6965 3ec0 5095 2cf5 63bb 63c0
000007a0: b87b ce93 dd74 4a40 cd3b 75f5 9bd3 30c0
000007b0: 0e50 79a1 b245 51c0 bb6c cc4c ebd0 2c40
000007c0: bb17 acc6 59a8 3c40 afc4 5a0f 1c9d 4bc0
000007d0: a5d6 d563 1939 3240 b360 bf57 3a24 4b40
000007e0: 010f 904b 2f62 4bc0 391f 0fea 1d97 4740
000007f0: ab71 1d4f 54ba 5440 e558 c8aa 44b2 44c0
0.0 0.0 0.0 23.49502497772217 1.7213188043576508 -42.428743593981345 38.42857542606295 -2.4510310327004716
-77.18523233401693 71.11036076136996 13.078788832288915 -108.49326041749016 89.65590963355803 30.793007917642086 -102.25108697857179 88.42066507341873
43.078859416689056 -157.00971589061947 110.46066198521879 65.27773661136031 -134.31543164211556 93.9768457336493 44.68393998416671 -156.20683369973688
97.2672527358854 21.793164090879284 -82.13972920372659 84.09407182026763 10.378008798064478 -116.47964966201341 60.30779196786749 9.158305731129504
-125.05961466335428 51.24612419055785 -11.086311390746337 -95.62075018806347 56.04561884009104 13.428643585728654 -70.06655767333417 48.12720107174061
17.515468814226093 -39.522458266060816 20.10760719020735 2.8545321218219564 -7.602710082355839 -15.829895707309431 45.89981539413187 13.968467680559163
-38.491736052227566 58.54662674900538 20.218846564902915 -58.23052547782967 42.94062014570363 23.79972316645576 -123.00270183953492 42.49897643190625
-35.777798735891125 -162.38913107056396 51.37433077612797 -74.81582472432271 -153.0798553040884 47.8763200834462 -68.15983327276793 -152.38469429179872
59.33897951783324 -77.44079767439561 -113.76022080826937 20.885914717401562 -44.87371564372066 -138.53514222723587 16.48779165554103 -32.216262324828406
-124.44191764122709 9.34676739222428 -61.82304186566509 -126.63941165497803 22.351825873518365 -42.46212269179867 -120.86629544994037 12.632240906839769
-5.186496390781411 -134.26684923687418 26.46397587440751 -35.003568887757545 -143.72424229908606 20.026348246012112 -21.252811916133673 -138.87621566619887
22.558861597710926 -23.71016321234329 -130.23062309684204 19.626656836013844 -40.72257143223769 -112.8484744661867 19.353169553159873 -56.363344143168526
-98.92290292792539 33.55947761032877 14.809921639860203 -97.94713373491089 6.0917490854935235 -21.66736009725189 -58.988047307731804 -2.0204406300900555
-30.28174294461341 -52.9512744475104 9.233652435853887 -18.985070785644897 -92.27548782479127 48.5325852725155 -0.9946214480646812 -119.77920570277128
31.088374282838313 -6.430111499700343 -88.3201005660001 33.358670636600586 -33.79641494614046 -83.9874010779275 25.489008461425346 -63.86804721884941
-93.41436140501749 17.362078773579686 -45.72602157512154 -111.77303959106062 10.882697206240003 -57.75594157268673 -101.83403315828494 18.989250382414642
-49.4058766068964 -99.89443486329938 18.8033625482073 -54.90486458741339 -104.81686282380939 11.006200633408497 -51.40196953024684 -106.10396901811043
22.104996652495064 -47.838910195328666 -103.34986649549882 23.579987533089867 -55.482668947920445 -106.14307665810004 21.158446720236768 -56.39157171044701
-100.68813433612587 24.40357293799749 -60.49781094446472 -100.92073745883447 24.046938925305515 -56.51712515093701 -109.11835930943509 25.05240357328338
-51.42805749867782 -120.00953768457248 9.673286024113807 -58.04100208613613 -130.80234870787422 29.210533028374705 -66.34222259330132 -131.17822094309
39.399885741832165 -57.831426853620044 -126.24308640583956 38.27884722987678 -32.29604374604433 -146.14061918073492 65.60749615273734 -23.95343826588248
141.17534445756633 37.56200426195391 -46.69961715967887 155.60294715774103 38.13099716247868 -31.80388460555988 143.03430735357972 36.82740756253695
-48.152456271409676 142.5244913576072 30.068638771162703 -80.62507892610691 137.1981049132316 27.836044257119507 -60.205699497259886 157.19527365813556
34.07600957280697 -51.33026300355377 152.66039359244132 37.71184378498166 -59.01919250111918 153.154121815592 34.67191393744581 -49.867065125150695
156.96446598331758 32.177057371255586 -39.960825072859095 155.55167465292692 35.73996501893408 -44.68797624529119 164.25802496911103 35.69748808385536
-52.92641301793776 151.66657868647985 36.11419786867424 -64.0808532506099 163.45568659886 37.539368860723314 -68.08892924848561 161.2573702979025
36.281468715879896 -68.45669816403154 152.10784488822375 37.914344440147076 -64.33110766678197 152.184304278511 43.879558573707385 -32.60601229752968
158.10974026690388 42.05577484491846 -48.014240672759435 -171.40574265896916 34.96520815105558 -41.17926836522332 172.43059169664704 54.378203941151064
-23.141529765738674 -168.93815174306837 36.63851816730756 -1.4327111895217644 -174.83483798171915 38.669418230802954 -18.401847463297177 172.4452907422791
28.20222762812505 -40.33695097850414 -170.53139006528113 42.23622090114855 -38.36436887845693 178.94163889063347 33.38754638385224 -61.79985629760417
-157.70689862805912 30.55105988454538 -30.396148512603855 -157.85595186908404 52.91301200468246 -16.82659849273823 -69.089027756185 14.408045196489516
28.65761987401468 -55.227418822594124 18.22304367037454 54.28303047985664 -54.76706833395111 47.18060041178109 82.91139581561463 -41.39272055418568
