tests/b3_frm_human_b1_r1_400ns_noPBCWhole_noJump_Center_SKIP10_euler_angles.npy (npy, 24152 bytes, 1 tensors)

array f8 [1001, 3]
000000 91 31 f3 ec e0 77 62 40 8d 7a a6 ca a2 42 40 c0
       147.74620673655275 -32.52059300545543
000010 0d ef 4a ab 96 7e 64 c0 db d3 e0 66 e3 31 64 40
       -163.95589222560412 161.5590090171016
000020 36 e9 8d 8d e7 99 3d c0 0e b8 44 1a 8f 8d 64 40
       -29.601189467569576 164.42371858045266
000030 07 bd 25 35 69 00 63 40 51 1c ab 8e f0 cd 40 c0
       152.0128427254751 -33.608903726148704
000040 41 b2 78 2b e9 00 66 40 77 62 0d 8b 47 da 60 40
       176.0284631116247 134.8212332974833
000050 a7 2f 38 8e 6f 72 39 c0 d1 88 5e da 2c 9d 65 c0
       -25.44701470252735 -172.9117252203346
000060 49 eb 0c 95 b8 51 61 40 67 53 20 9d b6 a7 32 c0
       138.55378201030024 -18.65513021506504
000070 24 b9 74 c2 74 cf 65 c0 ed 56 29 0b 04 11 63 40
       -174.4830028800726 152.53174360345966
000080 11 ab bb 24 ed b7 37 c0 b2 e1 10 04 f0 83 64 c0
       -23.71846227246994 -164.1230488137931
000090 58 06 67 c3 cf 3c 63 40 7d f3 2e 9f 5b 59 39 c0
       153.90036172983196 -25.349054287874868
0000a0 59 1a 69 6b f5 d0 60 c0 51 03 57 72 a8 17 62 40
       -134.52995844390787 144.7393123340103
0000b0 4d c5 4e 08 13 14 42 c0 f0 67 13 31 a1 b8 61 c0
       -36.15683082433916 -141.76967672147975
0000c0 9d a7 3c b8 3f 0b 62 40 97 53 02 96 84 09 40 c0
       144.35152828070287 -32.074358702789304
0000d0 30 c9 4b 81 a8 02 62 c0 27 b4 90 5a dc ab 62 40
       -144.08306946565563 149.37064865362592
0000e0 58 3e 56 6c df e8 36 c0 f5 95 be 74 e8 0f 61 c0
       -22.90965916734271 -136.497125980604
0000f0 09 22 fa 15 f2 ec 61 40 73 77 76 b6 06 68 2d c0
       143.40455149511425 -14.70317621418119
000100 4c 37 1f 6a 49 87 62 c0 69 ad 1d 41 05 b2 61 40
       -148.2277117356956 141.56314140125622
000110 d5 c8 a4 9f 41 06 33 c0 df f7 b5 e8 e8 c4 65 c0
       -19.024438836794463 -174.15343127766297
000120 ca b8 5b 0d d8 55 5f 40 94 81 de f7 a1 33 32 c0
       125.34131177861414 -18.201690189192576
000130 62 e4 0a 38 3d 3b 65 c0 76 93 da 0e d6 4b 61 40
       -169.85122301223151 138.36988012972478
000140 9e bb ef 5a c8 ba 40 c0 68 74 e6 51 01 1f 64 c0
       -33.45923935609538 -160.96891112337767
000150 e9 55 13 78 85 2d 60 40 97 ed 40 d8 1f 83 3d c0
       129.42254260803682 -29.512204662181457
000160 71 1b 8f 04 0d 32 62 c0 74 ce 74 17 84 b6 61 40
       -145.56408908796905 141.70362446607362
000170 3a 81 4c a9 e0 31 3e c0 68 3a f2 db 7c 63 65 c0
       -30.194834309747627 -171.10899159727273
000180 46 42 9d 81 09 cc 61 40 1e 21 3a d8 96 3c 36 c0
       142.3761604377234 -22.236676706496944
000190 a2 6c be 48 51 91 63 c0 d6 6e 2c 1f 07 6d 5f 40
       -156.54117238228088 125.70355967845111
0001a0 57 1e 5e eb 6d 6e 27 c0 df 68 43 a9 18 cc 64 c0
       -11.715682368506505 -166.37801039854
0001b0 16 17 c7 48 e5 73 60 40 76 14 df e4 c3 02 31 c0
       131.62173880467225 -17.01080160566604
0001c0 d3 f7 91 5d e7 45 63 c0 c9 68 c1 5b 7d 59 60 40
       -154.18449285992992 130.79655254149682
0001d0 16 50 b7 03 8d b0 35 c0 d7 9a 38 be dc b7 61 c0
       -21.689651710752592 -141.7456961732448
0001e0 77 e6 09 d7 b0 3f 5e 40 50 32 fb 1c 1d 8e 33 c0
       120.99516845671484 -19.555131732299117
0001f0 cb d2 7b 7b 4d 58 61 c0 fb a3 d5 bf 37 6e 60 40
       -138.75945829567203 131.44430534102125
000200 a8 e9 f2 a1 d9 e6 35 c0 cf 40 93 4c d3 c1 5f c0
       -21.901758310131896 -127.02852167492095
000210 50 1a da f8 89 c9 60 40 b2 2e 37 b0 87 17 32 c0
       134.29809229467583 -18.091914189789073
000220 89 5f 58 68 23 78 60 c0 fc ee 0a bb 51 33 5f 40
       -131.75432221660984 124.80186344211319
000230 ac d2 77 f8 8f 31 32 c0 24 64 e0 5d 41 9f 5a c0
       -18.193603066686293 -106.48836466706467
000240 c0 da ad d6 6e 74 5f 40 56 0e 45 24 3e d1 29 c0
       125.81926505067804 -12.90867722838372
000250 7b 71 46 a9 49 24 60 c0 44 06 7b 5d 82 50 5e 40
       -129.13399184950308 121.25795685781583
000260 4a 8c 95 5c 32 4c fd 3f 2a 44 78 89 b3 a2 5e c0
       1.8311027161187376 -122.54220806832078
000270 82 7b 52 56 cd a7 5a 40 2b ed e4 ba 07 46 13 40
       106.62190778784682 4.818388862822114
000280 9c fc 69 32 6a d7 5f c0 9f d5 3d c2 2e e1 5c 40
       -127.36585674619931 115.51847892797967
000290 0b d3 b3 d2 fa c9 f9 3f b8 59 c2 27 53 13 61 c0
       1.6118114691318535 -136.60390079459262
0002a0 90 20 b9 19 25 e8 5b 40 3e 2f fb ef 01 8a f1 bf
       111.62726443365887 -1.0961932539239139
0002b0 e7 f9 82 80 d1 e3 5d c0 e5 19 2e 2d f6 c6 5b 40
       -119.55966198721545 111.1087754202086
0002c0 37 66 6b 9c a2 ba 13 40 d1 50 a8 fb 48 79 60 c0
       4.932260936789638 -131.7901590621391
0002d0 2b 0c 7c 6b d9 4d 5b 40 76 cd ec 9b 37 45 1d 40
       109.21639525522248 7.317594944313319
0002e0 31 88 bb 11 e7 70 5f c0 b9 76 67 cb 7d b8 5d 40
       -125.76410334886238 118.88267788986094
0002f0 76 78 2c fb 68 69 11 40 16 fb 38 d0 f4 30 5f c0
       4.352939533795611 -124.76494222225696
000300 a5 ce 86 a1 57 32 61 40 48 a1 0c 89 5e 19 05 c0
       137.57319713906796 -2.6373873431186077
000310 3b 26 2d 8d ad 9d 61 c0 c8 c0 64 a6 f0 e0 60 40
       -140.927435482199 135.02937621763544
000320 65 02 ae ed 20 cb ff 3f 8e 5e 56 f4 4c 6b 61 c0
       1.987091949879095 -139.35314385289206
000330 20 19 28 2f 8e 38 61 40 09 c1 5a a6 15 fb 0b c0
       137.76735647041005 -3.4975998875089584
000340 79 bd 84 cd f4 23 63 c0 e0 74 51 84 c9 3d 60 40
       -153.1236331551152 129.93084922704202
000350 1d f5 aa 7d 5d 68 03 c0 f1 ea bd cd 24 d2 61 c0
       -2.4259595697209435 -142.5669926366168
000360 5c e5 f0 d9 8e e3 5f 40 79 34 1a f4 23 a5 95 bf
       127.55559395337099 -0.021137773298097493
000370 ac c3 d8 40 ca aa 60 c0 22 a8 f2 8e 5c 43 60 40
       -133.33718912445818 130.10504863160992
000380 cc 80 6e a0 7a d7 16 c0 51 7a cf c1 df 5a 5d c0
       -5.710428721184325 -117.41990704785827
000390 0b 6a ae 36 db 76 5f 40 e8 b7 91 6f 3f 48 2c c0
       125.85712973625793 -14.141108976877106
0003a0 f2 70 9e c1 c1 85 5f c0 b0 ba 24 5c ee f2 5b 40
       -126.08995094750188 111.79579833590356
0003b0 71 9e 42 74 de 6b 13 c0 67 06 7f d2 8d 8c 60 c0
       -4.855340782705398 -132.39231228646824
0003c0 71 9c 8b 8f b7 00 5d 40 47 3b 9f aa 99 de 13 c0
       116.01120365747353 -4.96738306614754
0003d0 9a 48 ca ae 6d d8 60 c0 ab 0f c5 87 41 b3 5c 40
       -134.7633890105106 114.80087465519198
0003e0 ef 38 ac 79 a9 83 08 c0 6f a9 53 1e 9d 79 5e c0
       -3.064288092201529 -121.90021475000479
0003f0 29 9c 36 9b a7 1f 5d 40 1f 1e dc 52 d3 51 17 c0
       116.49460487683304 -5.829907698330799
000400 0d 41 ec 54 45 ff 5e c0 a4 9c 0c 79 e8 35 5d 40
       -123.98860667297068 116.8423140166438
000410 33 5d a6 09 2c c3 1f c0 cf bf 9f a9 66 79 5d c0
       -7.940597677973801 -117.89689102745545
000420 94 30 d9 e5 c1 a7 5c 40 3d fa d3 48 4a 7e 00 40
       114.62120958528459 2.061665123909988
000430 83 d4 1e 5c eb da 5c c0 b7 d2 e3 7e 70 04 5b 40
       -115.42061522494082 108.06936619041777
000440 a3 0a 5e 40 aa b0 04 40 d6 b8 ea cf 74 c3 5d c0
       2.5862622288417056 -119.05400464937279
000450 37 4b e2 c6 74 d8 5a 40 dd 4a 56 cc 84 04 0f 40
       107.3821274957562 3.8772064174494134
000460 55 16 64 31 93 e3 5c c0 7f a1 29 8b d9 07 5b 40
       -115.55585894369263 108.12265280786049
000470 ac 7d 16 8b b9 9b 16 40 72 48 96 f5 b5 7a 5b c0
       5.65207497906469 -109.91735591579507
000480 33 76 e0 0e 82 c0 5c 40 9a 98 33 a1 e8 f4 01 40
       115.00793811721887 2.2445843309279327
000490 17 3c 1a 93 54 ae 5d c0 ec b1 5d 9a 42 48 5e 40
       -118.72391202508912 121.12906512403396
0004a0 f3 71 a0 01 d9 24 e9 3f 1c 1a 4d de a0 63 5b c0
       0.7857480079433671 -109.55669362573138
0004b0 7f 58 10 c1 13 20 5c 40 98 92 fa c0 99 43 01 c0
       112.50120569797762 -2.1580081058949183
0004c0 2b d6 6a 7f cb 81 5d c0 96 58 0c 75 7c 66 5b 40
       -118.02804551537763 109.6013462658469
0004d0 4b 44 0c e7 ce e2 26 c0 40 a3 1a 8b e5 bf 5a c0
       -11.442984791037949 -106.99838521577203
0004e0 52 f4 c5 a0 e2 51 5b 40 a4 53 a2 c1 a8 b9 0c c0
       109.27945727664454 -3.590653908506697
0004f0 ce 11 95 da 13 73 5d c0 2e bd 19 3d ea 7a 5b 40
       -117.79808678205083 109.92054679406712
000500 41 90 59 9f d7 3f 0d c0 21 e1 3c af 57 44 5d c0
       -3.6561729859550103 -117.06785183854346
000510 ed 94 a0 3b b1 eb 5a 40 91 d6 77 46 30 09 02 c0
       107.68269243890582 -2.254486609012766
000520 d5 37 1b 50 28 5b 5d c0 49 a7 a7 dd ec 7a 5a 40
       -117.42433550508515 105.92070714352043
000530 c5 57 85 8a be fe f6 3f 74 6d a2 92 26 94 5f c0
       1.4371934329005722 -126.3148542963225
000540 94 eb 78 a0 97 d7 5a 40 76 f1 fd 0f 36 12 fa 3f
       107.36862956818214 1.6294460892378004
000550 dc ee 39 e0 55 3d 5f c0 fe bb 7a 45 5b 03 5c 40
       -124.95836644799732 112.05244576440597
000560 4a f6 45 e7 48 aa 17 c0 6c f4 a1 4b 37 90 5f c0
       -5.916293729443689 -126.25337496581932
000570 ee f1 26 86 6f 8d 59 40 f4 a8 f4 6b 68 73 20 c0
       102.20993188670374 -8.225406049361915
000580 4a 09 17 69 b1 cc 5f c0 2a 77 33 a5 90 56 5c 40
       -127.19832827806127 113.35257844949652
000590 db 07 ab 2e 3b fe 1c c0 5f 76 da 38 00 63 5f c0
       -7.248272637547383 -125.54688855489938
0005a0 37 b8 d9 32 d1 87 5a 40 13 87 0a cf 31 59 1d c0
       106.12214347135237 -7.337104067819172
0005b0 c6 7b 6e b8 03 0c 5f c0 5e b3 92 20 1c 7d 5d 40
       -124.18772707738307 117.95484175039516
0005c0 76 59 60 59 44 9a 25 c0 7b b5 3b 1e 90 81 60 c0
       -10.80130271245137 -132.04884254133125
0005d0 00 3d fd 48 f5 b1 5d 40 73 56 ab 50 63 01 22 c0
       118.78059601526547 -9.002710839190717
0005e0 09 06 5a d9 52 51 5f c0 65 37 18 62 b2 c8 5d 40
       -125.27068170348515 119.13588764538652
0005f0 4f f8 af 0c 48 fd 1e c0 fe 6d 55 52 b6 76 5e c0
       -7.747345159759859 -121.85487802832355
000600 3a a2 7a c0 f0 89 5e 40 df c5 dc 0a 2c 49 20 c0
       122.15531932807872 -8.142914142083951
000610 14 32 17 d9 e5 24 60 c0 0a 24 e2 50 c6 17 5d 40
       -129.15305761843103 116.37147924503384
000620 55 d9 6a 3d 49 e2 20 c0 f9 3b a6 d0 06 13 5f c0
       -8.441965026181302 -124.29729095681968
000630 d2 1b b3 75 d1 03 5c 40 61 f1 fe 37 47 11 23 c0
       112.05965940943796 -9.533746480818708
000640 84 df 27 b1 93 30 60 c0 11 68 8c 13 bb 58 5b 40
       -129.51802881038395 109.3864182349355
000650 15 9a 21 0f 55 ca 27 c0 15 8b 32 ea 15 94 60 c0
       -11.895180199481766 -132.62767515060173
000660 2f 0d 11 b1 1b a6 5b 40 1e b2 b7 a8 64 5e 27 c0
       110.5954401651877 -11.684361717628288
000670 f0 d7 7d 75 45 c1 60 c0 9b 0b e2 63 02 6a 5b 40
       -134.0397288759118 109.65639588427295
000680 55 65 f7 b0 dd 77 28 c0 f3 ef f5 25 5d 66 60 c0
       -12.234113245200811 -131.19887064013128
000690 d2 0f 87 97 6d 56 5c 40 03 9f 8c 81 8a 07 16 c0
       113.3504389590228 -5.507364296157678
0006a0 3e 35 ce c2 b4 0a 5f c0 96 aa 00 55 c5 d2 5b 40
       -124.16728277337549 111.29329419198106
0006b0 9c bf 68 f1 16 f5 d4 bf 17 98 e4 a0 4d 84 60 c0
       -0.32745908331980345 -132.1344761337975
0006c0 13 dc 9b 1a 5c a8 5b 40 1a b6 eb 2b 8b 18 f1 bf
       110.63062157841368 -1.0684920993475147
0006d0 38 d4 91 11 b9 61 5f c0 30 ed 62 7a 96 13 5c 40
       -125.52692069283592 112.30605945263665
0006e0 8e 2d 78 76 f5 25 07 40 c4 cf d4 38 da 40 5c c0
       2.893534589331188 -113.01331921369916
0006f0 f0 a2 3a c1 e3 72 5b 40 db b2 85 1d e2 8c 14 c0
       109.79515104986399 -5.137581311497992
000700 7f 76 1f af b8 5a 5d c0 98 31 98 0e 75 f0 5a 40
       -117.41752222130343 107.75714459288281
000710 25 0f c8 bd fd fe 15 c0 75 07 cd 7b 65 9d 5f c0
       -5.499014821372644 -126.45931906721474
000720 11 a9 2e b8 61 7f 5c 40 f6 83 7c fb d7 16 21 c0
       113.9903393226307 -8.544616564702647
000730 77 ab 92 4e 61 1d 60 c0 19 6e 2e bc 4a 66 5c 40
       -128.9181282868046 113.59831146749674
000740 da 8b de 1f dd 9e 2a c0 2b 5e e4 98 c6 9e 5e c0
       -13.310280795971199 -122.48087141324565
000750 3d 90 0f 81 9f 6e 5d 40 b0 42 8c 7a 15 5e 1e c0
       117.72848536033503 -7.591878809748479
000760 70 1b 98 a3 87 6c 5d c0 fe fe 0d b3 1d b0 5c 40
       -117.69577874998299 114.75181270949176
000770 ca d7 a6 45 8a 31 2c c0 d7 eb e2 0b 86 bb 5c c0
       -14.09675805722863 -114.93005654487875
000780 38 87 b7 ab 5a f9 5c 40 0e 3e 23 4d 97 b4 2e c0
       115.89615910456348 -15.352716837455798
000790 c0 e6 f4 62 92 f7 5b c0 74 b1 0c fa 15 2e 5d 40
       -111.86830972591542 116.72009135474747
0007a0 61 c7 88 24 e5 2a 27 c0 02 6b fb d7 52 9b 5e c0
       -11.583779470154413 -122.42693137695827
0007b0 e4 b8 06 95 e6 f2 5c 40 75 12 5b 82 b7 51 31 c0
       115.79532361656635 -17.319206378206633
0007c0 3b 3f 68 6e 9b dc 5b c0 aa ff 2d 88 cb c5 5d 40
       -111.44698677235003 119.09054760448512
0007d0 bb c7 e2 36 e8 c5 35 c0 b0 71 86 b1 7e 49 5d c0
       -21.773074560514697 -117.14835775498682
0007e0 37 1a 48 87 92 26 5e 40 27 8b e5 99 b3 ff 33 c0
       120.60269338647127 -19.998834246197614
0007f0 cf c8 e0 8f c3 2c 5e c0 5d c4 a5 a5 7b 40 5d 40
       -120.69943615867236 117.00754681766689
