tests/b3_frm_human_b1_r0_400ns_noPBCWhole_noJump_Center_SKIP10_euler_angles.npy (npy, 24152 bytes, 1 tensors)

array f8 [1001, 3]
0	0x406269e6b05dae44	147.3094102697088
1	0xc03ffd28fff011dc	-31.988906856642515
2	0xc0643ea449041804	-161.95755434798787
3	0x4062093811f97874	144.28809450840674
4	0xc036d2aeff3925c2	-22.82298274178698
5	0xc0649883410a0565	-164.76602222401849
6	0x4061e8cc54d6a722	143.2749427978934
7	0xc03e63bbc2fbc129	-30.389583765471944
8	0xc0644315810f83fb	-162.09637501745587
9	0x40631a994f3245cc	152.8312145215881
10	0xc04127f723926b36	-34.31222958230357
11	0xc061c0edf3dbf471	-142.02904694518978
12	0x406164dc7c12f8b8	139.1519146318949
13	0xc043d2d30a7624df	-39.64706545609237
14	0xc059857313c1fe80	-102.08514875359288
15	0x405f1f769b0558fa	124.49161410829757
16	0xc0403a0f22bcd8d7	-32.45358690472647
17	0xc06430b956b09842	-161.52262434474147
18	0x4061928f493ba7d0	140.5799909749171
19	0xc03bcb53952ff85a	-27.794244121753174
20	0x40652555a7e56da7	169.16670603571148
21	0x40615b0d1ffde9b9	138.84535216896418
22	0xc03f023171a388df	-31.0085669540648
23	0x406420bcc23ad08c	161.0230418347095
24	0x405e79502ff90cc6	121.89551925011901
25	0xc03b52f8b336611e	-27.324107361580097
26	0x40646400a85b612c	163.1250802788503
27	0x405da11d7f8ed888	118.51742543172634
28	0xc03555566a16bfd7	-21.333349829248473
29	0x4063a092e51a519e	157.01793151035685
30	0x405e8bbcc1176602	122.18339564595229
31	0xc037e6b64b8c5059	-23.9012191026271
32	0x4064e6b110006b84	167.2091140754893
33	0x406023449819e54d	129.10212330873256
34	0xc03312277f5f0fd1	-19.07091518469662
35	0x40645ce6716bb616	162.90313025510176
36	0x405eb78a9532e8ce	122.86783342334385
37	0xc030813095cf84a1	-16.50464760128364
38	0x4064702c86d074aa	163.50543537820823
39	0x4059b92f0baf751e	102.89349643835564
40	0xc0329d4714bcccbd	-18.614365860074702
41	0x4063e21fb754b86f	159.06637159869157
42	0x405a3b51bc2a3160	104.9268637096443
43	0xc03479d4917f4b4a	-20.47589978559271
44	0x406331ba66eab36a	153.5540041526795
45	0x405d4db6fd613a58	117.21429380888856
46	0xc02abcc398e748a4	-13.36867978881157
47	0x406278943582b2ff	147.76809192206562
48	0x405bdd0e6a64450b	111.45400485794032
49	0xc02ba7f4a6e966da	-13.828038421622683
50	0x406354dab6357911	154.65169821208886
51	0x405a5f10e35bcf53	105.48540576902205
52	0xc02dab029ba3c0c4	-14.83400427221239
53	0x406364fd621a80aa	155.15593056846893
54	0x405951fb28a514f0	101.28095451470631
55	0xc030664c9924dc75	-16.39960629606181
56	0x40640c3c20abc054	160.38233979745075
57	0x405b80421db4f57e	110.00403540298245
58	0xc01b11a7bfbfcd9e	-6.767241474229563
59	0x40611f6234f35ff5	136.98073813947818
60	0x405bc3ef5587a94a	111.06148279426739
61	0xc029112a2dc83988	-12.533524923984046
62	0x406101ad2f0032a8	136.0523905757775
63	0x405d00c3e7330ef5	116.01195697771239
64	0xbfc0b3ee994908d1	-0.13049108967431391
65	0x405d58a683d85093	117.38516327023017
66	0x405c1c3be9ffab4b	112.4411568638581
67	0xc01ddf26b4faa7df	-7.467921092795193
68	0x405c42183d28e2c1	113.03272942536115
69	0x405a3c29c16f8cf3	104.94004856008159
70	0xc0187b6158216c7d	-6.120488526382471
71	0x405cea8e68e3950e	115.66494199967221
72	0x40590ac2b4fd7de2	100.16813397173931
73	0xc01e88286762bf2a	-7.632966628458044
74	0x405e9f1dc4b5ed54	122.48619191900553
75	0x40594e673ef7011b	101.22505163308635
76	0xc0123f41827460a0	-4.5617733367472795
77	0x405d4c6ff76ebfc5	117.19433389487592
78	0x405678758b5207b1	89.88217432986018
79	0xc028026449f9310d	-12.00467139403238
80	0x4054caa3e255b5d1	83.16625269289149
81	0x4053983aa899a41d	78.37858023647318
82	0xc03291818a021115	-18.56838285971124
83	0x40543ff6c405fa40	80.99943638404602
84	0x4053da6018dcc208	79.41211530264275
85	0xc01f9ceb6f5e9935	-7.90324186339267
86	0x4059872df6f77fcc	102.11218046350331
87	0x40525622ae9d30a7	73.3458668265399
88	0xc0259369af429455	-10.787915684583064
89	0x405b9809254aebab	110.3755582076689
90	0x4052c9f8e8303960	75.15581707677256
91	0xc018ac8895d114df	-6.1684897812712896
92	0x405ae90b357ce3bd	107.64130913921595
93	0x4052780cc41985fe	73.87577917568703
94	0xbfe6179f9cff106b	-0.6903837267241334
95	0x40544ff4561272d9	81.24928809930442
96	0x4053b12e249b2a54	78.76844134476534
97	0xc01162e58471e516	-4.3465786642566595
98	0x4055b8287c1ed7ac	86.8774709988781
99	0x405126f97059debe	68.60897454048515
100	0xc01dac324708d388	-7.418160543359484
101	0x4056b48c0dd2214f	90.82104821701544
102	0x4051624fb308cd14	69.53611446246606
103	0xc023fe490ee13b37	-9.99665113925367
104	0x4057ee12755ac45d	95.71987661231965
105	0x404cd660cb91ef57	57.67482895494202
106	0xc02c39804e961b9f	-14.112307029556005
107	0x405667c48c4a67a3	89.62137133852097
108	0x404d6d4c19b72998	58.85388490146141
109	0xc033176915c4bffb	-19.091447220358514
110	0x405846ce34d54556	97.10633583857756
111	0x404c867a78c5779f	57.05061254159886
112	0xc02c0b631c3160b4	-14.022240525271947
113	0x40586c41bfdee9ab	97.69151303070855
114	0x404a02bbd7798b1e	52.0213574737047
115	0xc0218657ff70bfb6	-8.762390120042124
116	0x4058a847378881b9	98.6293467362474
117	0x4044ba238b6065d6	41.454209730214345
118	0xc02dab12470ca2f5	-14.83412382153754
119	0x40586aef40bded7e	97.67085283801677
120	0x40495d0a43272126	50.72687568102474
121	0xc025e5ba41328eff	-10.94868663541956
122	0x405ba0cc96c90e7d	110.51248712191041
123	0x40471f48da3a06b7	46.24441078027069
124	0xc021d92dee40f951	-8.924178548270591
125	0x40568b39b75d9261	90.17539772165175
126	0x4045fee5fc11480e	43.9913935741789
127	0xc01937cd9bc65ffe	-6.304495271666381
128	0x4056b593cb0a458e	90.83714557650657
129	0x404477ab851b5dc4	40.9349218734383
130	0xc012dbd31091ac2e	-4.714672335520886
131	0x4055f14b0b0fc705	87.77020527401699
132	0x40443de5bfbd865a	40.4835738826193
133	0xc0225e08e2ab4b9b	-9.183661540422511
134	0x4053827ee2c161ea	78.03899449238784
135	0x40446614e001c438	40.79751205526594
136	0xc0189facf4fb8fe3	-6.155933215955858
137	0x40561a5f6d65bdad	88.41207442222249
138	0x4046be520e137f24	45.486879119415136
139	0xc02674fcd4fbf613	-11.228491454846369
140	0x4052fb1a8027c50b	75.92349246867904
141	0x4048ee5506c0fa34	49.861969799258446
142	0xc03163b184b01912	-17.389427464478167
143	0x404d1da204c1cb32	58.23150691473565
144	0x4046d8444a7606c3	45.68958407176026
145	0xc0303694d7a89a36	-16.21320865503568
146	0x4049f217962aaa39	51.891344805557715
147	0x40468be24f43090e	45.0928439214059
148	0xc033094dd979a756	-19.036344139290428
149	0x404fbaa937db813d	63.458289129428955
150	0x404636a1e69b96cd	44.426815820666526
151	0xc035b1fc4ba95baf	-21.695255974623873
152	0x404d23e5c547400a	58.280449542799104
153	0x404617b45e18aead	44.18519188122932
154	0xc03010e88a0ae1ba	-16.066048267037083
155	0x404d489e8f178d1c	58.56733883523904
156	0x404200dbda0a330b	36.00670934198396
157	0xc027f05aabb12ab4	-11.969441762329872
158	0x40519adb3cbe7120	70.41963118169633
159	0x4046c9eebedb8086	45.57759843557237
160	0xc023d393fa3f51e8	-9.913238353948103
161	0x4053f3d2fbb69030	79.80975239590111
162	0x4043240b99735371	38.2816039860835
163	0xc0329af5b3787442	-18.60531160059714
164	0x4050371f5103563c	64.86128640485634
165	0x4042ccd1267036ea	37.60013275603508
166	0xc03698237402a05e	-22.594290972367496
167	0x404ebedfabe9e67b	61.49120091362871
168	0x4041eb8b6d136b6e	35.840192446214914
169	0xc039e7c8c1626287	-25.905407034415955
170	0x4050b9a6214aca44	66.90076477340432
171	0x4043f37c739f8a5d	39.902235463047624
172	0xc037b19f3abb1004	-23.69383589808423
173	0x405314a3d388a3b4	76.32249916404436
174	0x404487e3870d8131	41.06163108977706
175	0xc03afe7293a41dfd	-26.993935802047407
176	0x40547e7adcdfa22b	81.9762489494248
177	0x403b2a755d932e4e	27.165853355820495
178	0xc041f513f6cf9be0	-35.914671756145026
179	0x40509d0aa66120a7	66.45377501950371
180	0x4032f70eb4689941	18.965068126236705
181	0xc040c1e3cfc8e2a7	-33.51476476010185
182	0x4052ad5238d768a7	74.708143434868
183	0x403eaa50be93d183	30.66529456242416
184	0xc03ca399ce9c3580	-28.639065659653625
185	0x4051e22a564f323f	71.53383405431758
186	0x40365d1939197c4a	22.36366612312512
187	0xc03c07e7f7272524	-28.03088326173487
188	0x405176ef3a430f53	69.8583512930757
189	0x404226cdc24be488	36.30315426545809
190	0xc0356524ff71f3ce	-21.39509579212227
191	0x4051cd85a157e254	71.21128114302093
192	0x4042a45bf7501aca	37.284056581605526
193	0xc03839141f88e06e	-24.222963305394323
194	0x405209e032eff7bc	72.1543090194163
195	0x4042b64dfd68e339	37.42425506230797
196	0xc039c83329cdce7c	-25.7820306899507
197	0x40533f50ddb98b35	76.98931067580709
198	0x4044d1bd3d1171a5	41.63858760215525
199	0xc03556a173cac9f5	-21.33840106678868
200	0x4051356491b3486c	68.83426325328918
201	0x4044da80c1010b72	41.70705425787936
202	0xc03854e677325572	-24.331641626156348
203	0x4051b4a160ff162d	70.82234978590778
204	0x404a5ad6c6a50b9d	52.70967944201332
205	0xc038e10cbf90bbb9	-24.879100773654248
206	0x404d0595c8507984	58.043633498472474
207	0x4047d6cc5c88e856	47.67811161694469
208	0xc038edb3fd09cf6e	-24.928527655501448
209	0x404e18f64468d88d	60.19501547927312
210	0x4043f4085e09941b	39.90650535075857
211	0xc034c58898ea5260	-20.771615559775796
212	0x404c6f182e6a3fc1	56.86792545497838
213	0x40426535451ba856	36.79068816996066
214	0xc034539a8afdc59a	-20.326576888042474
215	0x4051758c7bdd690f	69.83669945356472
216	0x4040d028db625ed1	33.62624685576669
217	0xc0307c12526721c5	-16.484654569796266
218	0x405126d6af27b349	68.60685328366266
219	0x4042fb326112dda3	37.962474950992394
220	0xc0361a0548d4c03c	-22.10164313501467
221	0x404ecb4e1c4a9cc9	61.58832124369798
222	0x4044aa91f759fa75	41.33257953542208
223	0xc0337b9f00204412	-19.482894904973428
224	0x40524b4dcb9a62fb	73.17662324978657
225	0x4043ec8a996442e5	39.84797971149036
226	0xc02a8013c9edfbf7	-13.250150976467905
227	0x4055d11f03467507	87.26751787071781
228	0x404295337c7c72ed	37.16563373638733
229	0xc020146b5a83f8fc	-8.03988154278749
230	0x4058a8f0aa7d46b5	98.639689085331
231	0x404829ba9eac1e1b	48.3260076847475
232	0xc015b19a15954bd8	-5.423439347493478
233	0x4055cc882f993d61	87.19581212963887
234	0x4040b176f066de16	33.386442232349665
235	0xc00192cb093f94d5	-2.196676323178148
236	0x405b10d679b014ab	108.26309053607353
237	0x4043ae09b9278dab	39.359671730340175
238	0xbfe6837563f231fc	-0.7035471870490819
239	0x405e5d506a9a0180	121.45803322829852
240	0x4048c2cb53f60fdb	49.521830077311925
241	0x3fd188bad96c7ece	0.2739703295974153
242	0x405fd66eddb7f9ac	127.35051672903381
243	0x404952f308869a79	50.64804178783829
244	0x3fe4297f44c3cfab	0.630065569216176
245	0x405ffb91f9b8f2fa	127.93078463612974
246	0x4047bf0c69ba4778	47.4925663146559
247	0xc01622dd02ca5dd4	-5.534046214677307
248	0x406156722a02a273	138.7014360476929
249	0x4048a8285e4d7ddd	49.31373194488308
250	0x3feed641895d263d	0.9636542971504195
251	0x405f06a1394b4f88	124.10359032015378
252	0x404725eb77a18162	46.296248391971645
253	0xbff512d12b947b87	-1.317094011530317
254	0x4060528a3b581de8	130.5793740006477
255	0x4044a028cf18f4a8	41.251245391068835
